IDAO_2019_EUREKA/models/epoch_51_ckpt.pth.tar (torch_old, 45397 bytes, 21 tensors)

fc1.weight f4 [32, 89]
00000000: bc37 943e 9745 b53c 9884 1b3e ce27 bcbd
00000010: 4f61 eebd b5ed 963b 67d0 40bd c019 e63d
00000020: 31ea bbbe 5353 2ac0 46dd 03c0 9a76 9fbf
00000030: b632 c73f 07b9 b6be 15f4 063f c261 df3e
00000040: f8b5 77be eacf 313e af1a 1a3f 6042 6b3e
00000050: 762f 1bbf b0c9 6ebe 0873 aabd 66d7 8fbe
00000060: edde cd3d 7dbf 113e 68bc 7e3e 7097 923e
00000070: fc5a 85c0 e270 12be 4b46 0237 a795 b43d
00000080: 6858 c23f c454 d5bd 9d14 a0be 4bb1 4abd
00000090: bf7b ac3f 1906 fe3e f017 423e cced 9e3e
000000a0: 23cd aabe a7f9 d4bd 4182 f43c 4771 403d
000000b0: 9cd6 37be dae3 f5be 1217 07be aa09 803d
000000c0: 3dc5 633e dfa9 04be b3c9 3dbd 5463 393b
000000d0: 6c5e 56bd 0e34 3b3f 5168 74bc 56af 503e
000000e0: cf5a a4be e6bb 8fbf f486 4abc cb2d b83e
000000f0: f3c3 18be dadc 5abf 1f70 84be 1947 02bf
00000100: 3d79 8340 397e d2bf 2e38 fdbf a8fd 15be
00000110: 8c65 8441 5528 08be db4a f03d ff4a 82be
00000120: 8269 4f3c 4ee1 90be d1f3 2ebe b820 fcbd
00000130: cb73 253e 01b9 613e dd71 ad3e 9f1d 5e3e
00000140: 9614 08bf 8094 05be 7001 9c3d 69a8 abbe
00000150: aa98 8dbf 5689 e5be da2a 12bf d413 073f
00000160: ee58 f4be b035 4e3e c8a5 cdbc d266 0d3e
00000170: d7d4 1b3d bf34 f9bc 1ae8 a53d 7058 523d
00000180: a7b6 30bd 281d a03d c656 febf b70e d7bf
00000190: 67bf a1bf b1f7 3e3f 5c21 22bf 1d74 f8be
000001a0: e09f e9bd 854a 1740 1455 b73d 32a1 d53e
000001b0: e904 82bf d764 9f3f 79fe 49be faae 8cbe
000001c0: 2758 aabe 257a 25be df0c 88be f28b 67be
000001d0: e094 a43e fb9e fe3f 2d5f 393d 4e0d da3c
000001e0: f1ab 933e 2a3b d6bf e279 923d 7138 89be
000001f0: 0de7 d73e 8d1a e4bf becf 8b3e 9f78 0b3e
00000200: 0730 093e 7151 2fbe 5e21 adbe 1e3a 503e
00000210: 5ead e4bd 9d3d cdbc 6531 003e fe23 2abe
00000220: 3828 9ebe 51bf f9be 1768 30be 1ec0 f9bd
00000230: 2259 aabd 5dae e3bd 0d04 77be f303 1dbe
00000240: df35 663d a118 c7be f08a 1fbf 5b16 2ebf
00000250: 46ec ddbe 76b2 70bf d285 a6bf e056 bbbc
00000260: 7e67 d0bf f087 5640 d9a8 b3be 67b6 91be
00000270: 6c79 01bf 45d9 9fbd 91ab 1abf 7814 73bf
00000280: 448c 5bbd 6019 8841 e842 03be 231b e2bd
00000290: 03b6 dfbd 3c6d 7e3e 4505 393e ad74 dbbd
000002a0: 1b0b 7c3e 2ec5 5b3e 4a59 82bd ede5 233f
000002b0: 3a09 8d3e a621 e1bf 6598 173e fe6b b63e
000002c0: 2c82 8fbe d9cc a7bf 1412 eebf d984 7ebf
000002d0: 8143 bdbf d5ae 32c0 6630 0b3e 5a45 bc3f
000002e0: e786 5c3f ec9c d03e d56d 0fbf 61a7 0340
000002f0: f639 bbbe 8f26 86be 4792 d73f 6968 61bf
00000300: 9d78 b7be 598a 3d3e d2a1 b6bd 9b25 383f
00000310: 08fb 093f b4af 433e 99b6 c3be cb6f 48be
00000320: 7987 51bf 2c8a 1c3d c0de a4bd 3b2b 4bbe
00000330: aeec 0abf 0630 b4be 2f6b 97be 69ee 6b3f
00000340: cc45 413f 5773 5dbe 4896 09bf e8a8 533f
00000350: 2c5d 3d3f 2940 7bbe 2022 13bf 3623 143f
00000360: 8eca b73e bcde 2abf 3747 83be 23ba 2a3d
00000370: 120f 003e bfc5 2d3f cfd3 3ebf c054 963f
00000380: 0b46 0d3f 16f1 703e 1e02 a6be c839 47be
00000390: 1f60 55be 15a5 49be 4793 3fbe 0ec3 d5be
000003a0: c43b b5bf 4954 a4bf 3510 9abf 75c2 8fbf
000003b0: d18d a8bf 9833 b2bf e1cb a1bf 94ae 7bbf
000003c0: 85e3 56bf 1e31 d0bf 277b f63f c1af 263f
000003d0: f788 a63f 4bde 5e3f ff40 a13f 8282 593f
000003e0: 0e0e 9e3e 2647 0e40 7025 e93e f541 e3be
000003f0: a2ce 13be 7ccc 953f 25f0 2c3f 2ffd 8c3d
0.28948772 0.02212791 0.15187299 -0.0918728 -0.11639654 0.0046059736 -0.047073748 0.1123538
-0.3670211 -2.6613357 -2.0603805 -1.2458069 1.5562351 -0.3568804 0.5271619 0.4362927
-0.2419051 0.17364469 0.60196966 0.22974539 -0.60619295 -0.23319125 -0.08322722 -0.28094023
0.10052285 0.14233203 0.24876559 0.28631163 -4.1673565 -0.14300874 7.76497e-06 0.088176064
1.518323 -0.104165584 -0.31265727 -0.049485486 1.3475264 0.49614027 0.18954444 0.310408
-0.33359632 -0.1039918 0.029847266 0.04698303 -0.1795296 -0.480254 -0.13192394 0.06251843
0.22243209 -0.12955426 -0.046334933 0.0028287964 -0.05233614 0.73126304 -0.014917449 0.20379385
-0.3210053 -1.1229217 -0.012361277 0.35972437 -0.14918499 -0.8549324 -0.25866792 -0.50889736
4.1085496 -1.644477 -1.978277 -0.14647543 16.549583 -0.13296635 0.117330275 -0.25447842
0.012659432 -0.28296894 -0.17085196 -0.12310928 0.16157453 0.2204323 0.33875933 0.21690987
-0.5315641 -0.1304493 0.07617462 -0.33526924 -1.1062214 -0.44831342 -0.57096636 0.5276463
-0.47724098 0.20137668 -0.025103465 0.13808754 0.038044777 -0.03042066 0.081009105 0.05135387
-0.04314294 0.07818061 -1.9870231 -1.6801366 -1.2636536 0.745967 -0.6333215 -0.48526087
-0.11407447 2.3639233 0.08951774 0.41724545 -1.0157748 1.2452649 -0.1972598 -0.27477247
-0.3327038 -0.16159876 -0.2657232 -0.22611979 0.32144833 1.9892267 0.045256782 0.026617672
0.28842118 -1.6736805 0.071521536 -0.26800874 0.42168465 -1.7820603 0.27306932 0.13620232
0.13397227 -0.17120911 -0.3381452 0.2033467 -0.1116588 -0.025053794 0.12518843 -0.16615292
-0.3089006 -0.48778775 -0.17227207 -0.121948466 -0.08317782 -0.111172415 -0.24122639 -0.15333538
0.05620372 -0.38885978 -0.62321377 -0.6800286 -0.43344325 -0.9402231 -1.3009589 -0.022868574
-1.6281583 3.352047 -0.35089758 -0.28459474 -0.505759 -0.07805113 -0.6041804 -0.9495311
-0.053600565 17.01239 -0.12818491 -0.11040332 -0.10923388 0.24846357 0.18068416 -0.107156135
0.24613611 0.21461937 -0.06364687 0.64022714 0.27546102 -1.7588394 0.14804228 0.35629267
-0.28029 -1.310939 -1.8599267 -0.9942146 -1.4786226 -2.791921 0.13592681 1.4708664
0.86143345 0.40744722 -0.56026965 2.057091 -0.36567658 -0.26201293 1.6841515 -0.8804994
-0.35834208 0.18509807 -0.089175835 0.7193238 0.5389867 0.19109994 -0.38225248 -0.19573896
-0.8184734 0.03821771 -0.08050299 -0.1984071 -0.54267395 -0.3519289 -0.29573962 0.9216066
0.75497127 -0.2162603 -0.53744936 0.82679605 0.73970294 -0.24536194 -0.57473946 0.5786623
0.35896724 -0.66746116 -0.2564027 0.04168142 0.12505749 0.6787986 -0.74541944 1.1744614
0.55185 0.23529467 -0.3242349 -0.19455636 -0.20837449 -0.1969188 -0.18708526 -0.41750377
-1.4158864 -1.2838222 -1.2036196 -1.1231219 -1.3168279 -1.3921995 -1.2640344 -0.9831326
-0.8394092 -1.6264989 1.9256333 0.6511193 1.3010548 0.8705794 1.259796 0.84964764
0.30870098 2.2230926 0.45536375 -0.4438626 -0.14434293 1.1703029 0.6755393 0.068842284

fc1.bias f4 [32]
00000000: ee08 00c0 d47d 4ac0 fddc 9a3f 4f9e 69bf
00000010: 6734 82c0 34aa 57c0 f947 54bd 36c6 bf3e
00000020: fadf 86c0 7ae2 28c0 c875 c640 e6b0 c940
00000030: ec68 1040 954d 7b40 01c5 80c0 29a5 9ec0
00000040: 5031 4fc0 4456 cfbf 5294 1bc1 31fb 88c0
00000050: 9dc6 1640 cf93 cabf d315 22c0 c058 17c0
00000060: f332 77c0 fe0e 5bc0 fbfa 92c0 6e0b 60bf
00000070: 1667 81c0 9b7f 8dbe 1703 ea3f 764c 1dc0
-2.000545 -3.16393 1.209869 -0.91257185 -4.068897 -3.3697634 -0.05182645 0.3745591
-4.214841 -2.638823 6.2018776 6.302844 2.256404 3.9266102 -4.0240483 -4.957661
-3.2373848 -1.6198201 -9.723711 -4.280663 2.3558724 -1.5826358 -2.532582 -2.3647919
-3.8624847 -3.42279 -4.5931373 -0.8751744 -4.0438337 -0.27636418 1.8282193 -2.4577918

fc2.weight f4 [16, 32]
00000000: b630 333f 2e2e de3e d5de 103f a30d 71be
00000010: 0275 963f 0b6f 48bf 0906 563f 8a9e 1abe
00000020: 246c a33f 83a2 4dbf 70de e13e 3f24 1a3e
00000030: 3f23 52bf b86b e13d 36a1 8cbf e6bf fe3d
00000040: 694a 88bf 9d84 5f3e 624b ae40 45b6 0240
00000050: 43e1 32be 3bbd 80bf a998 f83e d860 37bf
00000060: 1aeb 69be a850 dabe 91e3 5cc0 9de6 1abf
00000070: 314a debd 3fb2 7e3f 955c 533f 8bf4 1ec0
00000080: 3e26 a63f 8e35 a83f 11f0 5ebf 323d 2b3f
00000090: 9e7d 883f c87c 30be 815f 493f 8ca1 7dbf
000000a0: a654 223f 4755 e43f 3bed 65bd daac 89be
000000b0: 7a3f 913e adbc 65bf bb6d eabc c0db 303f
000000c0: dbc5 87be 37d9 823e 736c 5240 6700 a03e
000000d0: 4221 28bf 686a 00bf 8392 f63f a261 0abf
000000e0: de65 80bf 484f 48bf 1da9 903f 558b 2fbf
000000f0: 5e63 70bf fd4e 2d3f 3354 68bf 8ab8 4a3f
00000100: e35e 53be 3fe9 d3be e8f9 1bbe f12e 0ebf
00000110: d27d 96be 67a1 d83d a059 3fc0 82f1 9dbe
00000120: a333 9fbe 015f 0bbe 29c5 95c0 5abb cabe
00000130: e1cd a83d f9b5 a5c0 0834 5e3d c09c 90be
00000140: 6c7c 633d 818e 5f3d cf8a 76be adf4 2e3d
00000150: 0b40 fd3d a514 953d 2be7 4e3e 636c 873d
00000160: 5a7f 8740 2585 f0bd 580f dd3f 8356 c23d
00000170: 8273 a840 17a8 24bf 9bf8 91bf eefa 00bf
00000180: accd 1a3d 2fec e2bd 9c65 abbe 6189 7abe
00000190: 5071 fb3c ecf7 e03c 2f5f c7bd 2da4 63be
000001a0: 0d28 97be 8b7c 92be 8c82 bfbe 164d 5bbe
000001b0: 4420 a0be ca2d 6cbe 87d2 3ebb 3570 9bbe
000001c0: 2e6b 16bd 3bbb 3bbe b7f3 5f3c 9f3c 53be
000001d0: 6175 73be d380 28be b651 0ebe 3251 62be
000001e0: a8f4 e5bd 99ff adbe d8cb 11be c272 7cbe
000001f0: 9f5d 143c 047b 83be 34bf 30be 990f 1dbd
00000200: 31a4 a6c0 3e89 5abc bd8a 50bc ea0a b53e
00000210: 314c 1bbe 9d9c b6be eeca fb3e c5ca 80bf
00000220: 9f9a 613e 6b3b 60c1 f2d8 80be 5f1c 9d3e
00000230: 6fdc 0c3d e8da a0bc 93bc e4bd e2e4 adbf
00000240: 611e bdbd 7209 4cbe 4ece bc40 bb87 a5bf
00000250: 82b5 17bf fae8 113f 420a dfc0 4a80 463c
00000260: ac13 c6bc ad0d cebd c4dc 35c0 a400 cbbe
00000270: 4977 ef3d 0679 b2c0 b60b b2be 95f0 4ac0
00000280: d609 79bf c192 07bf 0336 0bbf f642 333f
00000290: ada1 cbbe 5b60 e3be af62 4bbf 4952 33be
000002a0: 96f9 59be ddef b5bf 4185 993f 3e1a f13e
000002b0: 065e 12bd 27fe 463f 7071 303e c843 ec3e
000002c0: eb9f 643e 0a3c 9c3d 0bde bd40 8ea0 65bf
000002d0: 04ab 243e 8b2f 3f3c d73a 34bf 3a80 903d
000002e0: 3e34 a1bf bb0c d3be 08bc e0bf e835 953d
000002f0: 633c 77bf 35a2 3ebe 8ea7 42bf 42bb 983f
00000300: 09ba 273f 4cbb b93e 2d2d f7be d59a e3bf
00000310: 74bc 553f 5007 a73f dfd3 b2bb 6456 87be
00000320: 398c b73e 0eef 073f 3b5a 4d3f 7515 3c3f
00000330: fbd5 0cc0 cdfb 603f 218e 12c0 3a78 d03f
00000340: 8474 08c0 0821 e6be 7b92 78c1 d9ab 903f
00000350: 5e42 93bf b789 913f d7c1 b63e c486 25c0
00000360: 5437 bf3d 4eab 6a3e aa01 13c1 ad95 e9bf
00000370: c21f 913e 0c51 f63f 4726 893f eefa 3fbf
00000380: 7820 ebbf ded6 09c0 f271 20bf f684 4ec0
00000390: 4505 25bb a23e e7bf 1225 1ac0 a7ed 27c0
000003a0: b8df 753f 8507 f43f dd76 7e3d d685 10bf
000003b0: 961e 87c0 e4fe 903f 5429 c0c0 30b1 9cc0
000003c0: b687 9ac0 cd78 02be 875d 2ec0 77e7 64bf
000003d0: c50c b2c0 16d9 91bf 5bd8 a23f eefd 94be
000003e0: dcd6 5e3f 448f 88bf e6b6 d4bf 77c4 923f
000003f0: 86a4 1dbf 7fc0 b33f 04f3 d8bf 7d13 143e
0.699962 0.43394607 0.56590015 -0.23540358 1.1754458 -0.7829444 0.8360296 -0.1509954
1.2767377 -0.803261 0.4411502 0.1505289 -0.8208503 0.11006874 -1.0986698 0.124389455
-1.0647708 0.21827932 5.446702 2.0423748 -0.17468743 -1.0057749 0.4855397 -0.71632147
-0.2284359 -0.4263966 -3.4513896 -0.6050814 -0.10853995 0.9949073 0.82563144 -2.4836757
1.298042 1.3141344 -0.8708506 0.6689025 1.0663335 -0.172351 0.7866135 -0.99074626
0.63410413 1.7838525 -0.056134444 -0.26889688 0.2836874 -0.8974102 -0.028616777 0.6908531
-0.2651814 0.25556347 3.2878692 0.31250307 -0.6567575 -0.50162363 1.9263462 -0.54055226
-1.0031087 -0.78245974 1.1301609 -0.6857198 -0.9390162 0.6769865 -0.9075348 0.79187834
-0.20641665 -0.4138889 -0.1523205 -0.55540377 -0.29392868 0.1057766 -2.9898453 -0.30848318
-0.31094083 -0.1361046 -4.6803174 -0.39596063 0.08242393 -5.1784635 0.05424884 -0.2824459
0.05553858 0.05457926 -0.24076389 0.04271381 0.12365731 0.07279328 0.20205371 0.0661247
4.234296 -0.11744145 1.7270308 0.09489157 5.2641 -0.64318985 -1.1403993 -0.5038289
0.0377938 -0.11080205 -0.3347596 -0.24466468 0.03069368 0.027461968 -0.09734952 -0.22230597
-0.29522744 -0.28610644 -0.37404287 -0.21416125 -0.31274617 -0.23064342 -0.0029117183 -0.30359045
-0.03672331 -0.18333142 0.013668946 -0.20628594 -0.23775245 -0.16455393 -0.13898358 -0.22101286
-0.11228305 -0.33984068 -0.14237916 -0.24653152 0.009055524 -0.2567979 -0.17260438 -0.038344953
-5.207543 -0.013338385 -0.01272839 0.3535989 -0.15165783 -0.3566636 0.4917826 -1.006188
0.2203164 -14.014506 -0.25165516 0.30685708 0.03438991 -0.019635633 -0.1116878 -1.3585474
-0.0923431 -0.19925478 5.9001837 -1.2932047 -0.59261334 0.5699612 -6.970002 0.012115547
-0.024179302 -0.10061202 -2.8415995 -0.39648926 0.11692674 -5.5772734 -0.3477456 -3.170934
-0.97280633 -0.52958304 -0.5437929 0.7002405 -0.39771786 -0.4440945 -0.79447454 -0.17511858
-0.21286616 -1.4213825 1.1993791 0.47090334 -0.0357342 0.77731556 0.17230773 0.46145463
0.22326629 0.07628639 5.933355 -0.8969811 0.16080862 0.01166905 -0.7040228 0.07055707
-1.2594068 -0.4122065 -1.7557383 0.072856724 -0.9657652 -0.18616565 -0.7603692 1.1932147
0.6551824 0.3627571 -0.48276654 -1.7781626 0.8349068 1.3049107 -0.005457386 -0.26433098
0.3584917 0.53099144 0.80215806 0.7347024 -2.2005603 0.8788422 -2.2899249 1.628669
-2.1321115 -0.44947076 -15.535762 1.1302444 -1.1504629 1.1370152 0.35694763 -2.5863504
0.09336725 0.2291691 -9.187906 -1.8248802 0.28344542 1.9243484 1.0714806 -0.74992263
-1.8369284 -2.1537395 -0.62673867 -3.2268653 -0.0025180143 -1.8065989 -2.4085126 -2.6238801
0.9604449 1.9064795 0.062125076 -0.5645422 -4.2224836 1.1327786 -6.005045 -4.8966293
-4.8290663 -0.12741394 -2.7244585 -0.8941569 -5.564059 -1.1394374 1.2722276 -0.29099983
0.870466 -1.0668721 -1.6618316 1.1466206 -0.6157917 1.404312 -1.6949162 0.14460559

fc2.bias f4 [16]
00000000: 5045 89c0 8712 4c3e 9324 99c0 bbe6 88be
00000010: 53b0 b940 1afd ae40 eb72 dc3f f24f c13e
00000020: 448a 9fbd e3fb c3c0 34e3 ebbe c275 4340
00000030: 312a 30be 9b79 0fc0 96b2 ed40 cd9d 82c0
-4.289711 0.19928943 -4.7857146 -0.26738533 5.802774 5.468396 1.722257 0.37756306
-0.07790044 -6.124498 -0.4607178 3.0540624 -0.17203595 -2.2417972 7.42805 -4.081763

fc3.weight f4 [4, 16]
00000000: 3d73 a3be ca6b 0abe 731d 19bf c709 19bd
00000010: 10eb 1b3e 4acd 903e 5b21 9cbe 80e5 a9be
00000020: ffff 7b3e fa0b b23e 89ea 82be f0f4 2e3e
00000030: f4f0 81bb 8661 c93e 3be6 493e 8617 b7bd
00000040: f83f f9bd eacf 33bf 76b4 b03f fc8e 183e
00000050: 50af c6be af25 18be c806 953e 2945 b43e
00000060: 1380 0dbe 9960 d1bd 3b6c b03e 5b76 89bd
00000070: d38e 513d c3de 82bd e44a c7be a047 1dbf
00000080: 3412 613d b855 9a3e d6f2 7dbe 18b7 b6bd
00000090: 00c6 07bd 4323 a93d 3ae9 9abe ee26 15bf
000000a0: f65a cebd b1c3 d13b 5fb4 50be b2ae 05be
000000b0: 77ae 973d 90b5 d23b 13ef 54bc 3a18 133f
000000c0: ec4c 14be 64e2 20bf bed5 c0be dcf0 f7bd
000000d0: a2cd 633c 11d7 e2be f6b2 abbe cc66 76be
000000e0: 9a7b 15be cedc 43bd 59af 5dbf b1bb 09be
000000f0: d094 31bd dfe5 f1bd eef4 2bbf f8b2 54be
-0.31923857 -0.13517681 -0.5981056 -0.03736284 0.15226388 0.28281623 -0.30494198 -0.33182907
0.24609374 0.34774762 -0.2556956 0.17085624 -0.0039654914 0.39332217 0.19716732 -0.089400336
-0.12170404 -0.70239127 1.3805072 0.14898294 -0.38805628 -0.14858125 0.29106736 0.35209015
-0.13818388 -0.10223503 0.34457573 -0.06712028 0.0511616 -0.06390145 -0.38924325 -0.61437416
0.054949 0.30143523 -0.24799666 -0.08921641 -0.033147812 0.08258679 -0.30256063 -0.58262527
-0.10075943 0.006401502 -0.20381306 -0.13054922 0.074063234 0.0064303353 -0.012996453 0.5745884
-0.14482468 -0.62845445 -0.37663072 -0.12106487 0.013904007 -0.44304708 -0.33534974 -0.24062651
-0.14597932 -0.047817998 -0.86595684 -0.13450505 -0.04335481 -0.118114226 -0.6717061 -0.20771396

fc3.bias f4 [4]
00000000: 0ed2 e040 1b50 dd40 f3c3 e93f 395c 7bbf
7.0256414 6.9160285 1.8262924 -0.98187596

fc4.weight f4 [1, 4]
00000000: 1d02 343e 61de 81bd 7678 6d3d c151 623c
0.17578931 -0.063412435 0.05797621 0.013813437

exp_avg f4 [32, 89]
00000000: f74d 3eb9 cc00 41b9 03c9 efb8 b57f 3bb9
00000010: f694 18b9 834d fdb8 4ab5 c7b8 656b 8fb7
00000020: e2e2 a5b8 2dce 4ab8 1383 dab7 a3a4 f236
00000030: 3e9f c337 5fb6 1f37 7d62 1137 0325 9237
00000040: bc6f 5437 d57b ce37 2dea e437 6a79 2438
00000050: 852c b137 516b 2538 1ea0 7d38 9c5f 8638
00000060: c3e1 5938 7fa2 3b38 abac bf37 d743 2b37
00000070: d810 c237 de49 8938 ecfc 9037 7eb5 41b6
00000080: 95a6 8037 7cc2 8938 2464 8937 2e5e 3eb6
00000090: 925c 8437 e106 6338 73f7 3c38 8dbc 9638
000000a0: 3dc8 5638 05c9 1038 7d40 d6b6 c311 9d38
000000b0: a29b 1038 9b89 1f37 687f 1437 262a 0c37
000000c0: d32c 0437 7c61 f037 b83a f037 d71b f037
000000d0: 6e03 f037 aa25 29b8 1aa1 0038 a8f5 ff37
000000e0: 645d 0538 985f 0b38 8e03 0038 b7e1 fe37
000000f0: 6ed5 0438 69e7 0a38 c7ee cdb7 49ae b937
00000100: 2331 5cb8 8332 8337 e28b 6738 97e8 9538
00000110: 8d70 0338 fd26 dd38 ffb6 8837 d2b2 4f38
00000120: e78c 5538 75da 33b8 5c13 4c38 fdfb 3638
00000130: d4e9 7038 e064 1a38 5c36 b438 3335 8a38
00000140: 39ec 8b38 29a7 2536 cf8a b738 7e91 9533
00000150: 5682 1f38 4a96 c538 964f 4938 64ab c8b6
00000160: 119d 6937 970e 8438 88ee 3938 0b7c 7538
00000170: 2c3c a138 0ec2 7d36 bceb 80b8 ca1b c3b5
00000180: dc8b a138 adff b7b7 d44b ff38 673a ed38
00000190: f0df e838 f33a ea38 5ec3 bf38 8f05 c138
000001a0: f794 d438 b876 cb38 aaeb 35b8 9eaf 2cb8
000001b0: a703 d3b7 e124 23b8 870a 4638 7d7e 3b38
000001c0: a081 5d38 95fe 8538 122e 8436 c074 1d36
000001d0: 1cbb 0e38 f901 a137 0214 e537 e80d 6d37
000001e0: fdf0 e837 2f37 34b3 c5ec e637 916b 6237
000001f0: de87 e837 265c 01b5 eb73 7c37 1efb 27b8
00000200: b7a6 0eb8 40ec fe37 3cc3 bdb8 a7a3 98b8
00000210: c50d 0b38 b9d2 c937 2999 be38 35e9 be38
00000220: 080e bf38 f8f4 bf38 eb2f 2db8 9f07 2db8
00000230: 9de7 2cb8 3acb 2cb8 22bb b9b7 f73f 49b7
00000240: 09d7 4ab7 3a3a 44b7 af44 41b7 f224 44b7
00000250: ce8e 45b7 8701 3fb7 532c 3cb7 367e 3b37
00000260: bc31 e6b6 fa4b d136 5533 0b38 696d 8238
00000270: 2872 9f37 2994 5138 60d3 0338 fb83 3a38
00000280: 02c2 3c38 69d0 2838 8f7c d135 e915 84b7
00000290: 5386 1eb8 26a0 fa37 bf6f e437 e05c b037
000002a0: 7eba 4238 4594 6d38 91ce 44b7 652e cb37
000002b0: 25d5 1635 bdfc bf37 2c72 1438 2597 9036
000002c0: a6b0 ecb6 bc6a fbb6 5174 8ab6 ea7a 41b8
000002d0: 420a 40b8 0569 55b8 b16b d3b7 89d9 7ab7
000002e0: c189 0d38 cf0c 04b8 79cf 3138 2863 4c38
000002f0: b275 6c38 6e98 8138 adee a838 ccdd aa37
00000300: e2c9 e337 4c29 5e37 5cb4 9238 32fc 3ab6
00000310: a4a7 6db6 84cc 77b6 9be9 3638 99eb 2b38
00000320: 973f f637 9739 2135 8576 7938 862b adb7
00000330: 5567 fcb7 ad1f 7736 10d7 3f38 adc8 84b7
00000340: 5ca2 cbb7 5fa8 afb6 ac47 3838 07ca 85b7
00000350: 3708 cdb7 08b0 eab6 1bdc 3738 9e70 5b37
00000360: 867c 85b6 1a3e 02b8 1597 16b8 70fd 9f37
00000370: c5c1 4838 0393 ce37 4731 4438 a738 ab37
00000380: 15ad bb37 3e30 ca37 4e77 d637 14e0 62b5
00000390: aa21 72b5 dc04 80b5 94b9 85b5 9f08 c437
000003a0: 343b 8eb7 ce7d 8db7 62f6 90b7 b4f0 94b7
000003b0: e716 93b7 ae0b 92b7 dd34 95b7 31fd 98b7
000003c0: d28f 2a38 9a5f b237 c2bc a537 d027 1c38
000003d0: 4184 d937 d756 6e37 d517 f437 f149 d036
000003e0: 5fec 1cb8 d608 9db6 a90c 4c37 d1b3 c936
000003f0: e979 beb7 157b 8cb7 9d01 0bb8 d43f 2238
-0.00018148856 -0.00018406211 -0.000114338494 -0.00017881284 -0.00014551342 -0.00012078418 -9.522827e-05 -1.7096938e-05
-7.910073e-05 -4.835257e-05 -2.6048661e-05 7.2313283e-06 2.3319964e-05 9.5196e-06 8.665605e-06 1.7421791e-05
1.26622e-05 2.4614777e-05 2.7288765e-05 3.9213723e-05 2.1120775e-05 3.943901e-05 6.046902e-05 6.4074266e-05
5.194709e-05 4.473561e-05 2.284938e-05 1.0208189e-05 2.3134446e-05 6.546428e-05 1.7283914e-05 -2.8864883e-06
1.533636e-05 6.5688946e-05 1.6378304e-05 -2.8367026e-06 1.5778733e-05 5.4127424e-05 4.5053148e-05 7.187678e-05
5.1208062e-05 3.451949e-05 -6.3852044e-06 7.489652e-05 3.447722e-05 9.509177e-06 8.8511515e-06 8.354464e-06
7.87825e-06 2.8655624e-05 2.8637573e-05 2.8623193e-05 2.8611827e-05 -4.0327817e-05 3.0667616e-05 3.0512761e-05
3.1796648e-05 3.322921e-05 3.052089e-05 3.0384266e-05 3.1670024e-05 3.311728e-05 -2.4549094e-05 2.2134876e-05
-5.249785e-05 1.5639938e-05 5.5204968e-05 7.148197e-05 3.1337655e-05 0.00010545363 1.6297678e-05 4.9519185e-05
5.0914383e-05 -4.288038e-05 4.865542e-05 4.3626864e-05 5.743823e-05 3.681041e-05 8.593194e-05 6.590262e-05
6.6720364e-05 2.4684216e-06 8.751975e-05 6.964818e-08 3.802994e-05 9.4216855e-05 4.7996255e-05 -5.980417e-06
1.3924452e-05 6.296968e-05 4.4329587e-05 5.8528076e-05 7.688286e-05 3.7812893e-06 -6.1474246e-05 -1.453672e-06
7.703129e-05 -2.1934358e-05 0.000121734716 0.00011311919 0.00011104334 0.0001116897 9.14398e-05 9.2039925e-05
0.000101366946 9.7019074e-05 -4.3373242e-05 -4.1171552e-05 -2.515486e-05 -3.8896575e-05 4.7216683e-05 4.4702076e-05
5.281123e-05 6.389354e-05 3.93927e-06 2.346278e-06 3.4029697e-05 1.9193614e-05 2.7308244e-05 1.4129539e-05
2.7768774e-05 -4.1959705e-08 2.7528391e-05 1.34956945e-05 2.7719823e-05 -4.819034e-07 1.504736e-05 -4.0049774e-05
-3.4010704e-05 3.0389172e-05 -9.0485875e-05 -7.2784074e-05 3.3153006e-05 2.4059193e-05 9.088434e-05 9.103344e-05
9.110203e-05 9.153219e-05 -4.129104e-05 -4.1253512e-05 -4.1223702e-05 -4.1197265e-05 -2.2140859e-05 -1.1995427e-05
-1.2090205e-05 -1.1696067e-05 -1.1519688e-05 -1.1691112e-05 -1.1775364e-05 -1.1384843e-05 -1.1215993e-05 1.1175454e-05
-6.860324e-06 6.23753e-06 3.318799e-05 6.219262e-05 1.9007435e-05 4.9967468e-05 3.1429692e-05 4.4468772e-05
4.5003377e-05 4.024842e-05 1.5607965e-06 -1.5745829e-05 -3.7795235e-05 2.9876897e-05 2.7231754e-05 2.1024083e-05
4.642689e-05 5.664329e-05 -1.1730605e-05 2.422109e-05 5.618952e-07 2.2886665e-05 3.539228e-05 4.30913e-06
-7.0539127e-06 -7.4928084e-06 -4.1262615e-06 -4.612926e-05 -4.578592e-05 -5.0880964e-05 -2.5203308e-05 -1.495181e-05
3.3745313e-05 -3.148318e-05 4.2393312e-05 4.8729737e-05 5.6376397e-05 6.1795916e-05 8.055321e-05 2.0368861e-05
2.7154518e-05 1.3241846e-05 6.995417e-05 -2.7862957e-06 -3.5413332e-06 -3.6924912e-06 4.3609743e-05 4.0988994e-05
2.9355097e-05 6.006098e-07 5.9476606e-05 -2.0643474e-05 -3.0088859e-05 3.6824306e-06 4.573824e-05 -1.5829073e-05
-2.427509e-05 -5.2350074e-06 4.393577e-05 -1.5948912e-05 -2.444173e-05 -6.994236e-06 4.383559e-05 1.3079638e-05
-3.9782053e-06 -3.1052252e-05 -3.5903493e-05 1.9072293e-05 4.7864178e-05 2.4625571e-05 4.6775935e-05 2.041117e-05
2.2372735e-05 2.4102741e-05 2.5566344e-05 -8.451764e-07 -9.0201013e-07 -9.538157e-07 -9.963283e-07 2.3369035e-05
-1.6955288e-05 -1.6867092e-05 -1.7280869e-05 -1.7755061e-05 -1.753443e-05 -1.7409995e-05 -1.77868e-05 -1.8237713e-05
4.06651e-05 2.1263771e-05 1.975743e-05 3.7230377e-05 2.5930001e-05 1.4206124e-05 2.9098164e-05 6.207491e-06
-3.7413436e-05 -4.6799933e-06 1.2162295e-05 6.0112e-06 -2.2706534e-05 -1.6746615e-05 -3.3141685e-05 3.8683254e-05

exp_avg_sq f4 [32, 89]
00000000: 8fb5 9933 9367 a633 839b b533 96fd a133
00000010: c09a a633 5a1d b033 d6d3 a333 17b2 9d33
00000020: bcaf 8333 ab8b 1435 d2db 1635 211e 0035
00000030: 5323 0235 03fd 5d33 66bd 5e33 791c 6533
00000040: bf0a 5333 83d4 3133 dff5 3233 b5a9 3c33
00000050: ba08 2e33 6a39 8133 a41a 7b33 91f8 8633
00000060: 530e 7a33 076d 8333 453b 8433 f7e9 7d33
00000070: dd64 7133 d90d 8633 09c4 8133 191a 8033
00000080: 9a95 7233 a345 8633 fe9c 8133 fd37 8033
00000090: aa79 7233 e56a 9c33 24d2 a133 bfe8 9d33
000000a0: 03a9 8833 c50b b933 c594 a833 0f09 9d33
000000b0: 489d 9833 0de3 5c33 f325 5c33 b774 5b33
000000c0: 8e84 5a33 51b8 3033 2abc 3033 5ebf 3033
000000d0: 4dc2 3033 d95b 8a33 4edd 7433 c473 7633
000000e0: 3c8f 7633 a13f 7633 7a90 7533 0b20 7733
000000f0: 952e 7733 52d5 7633 cf0c a333 c622 a633
00000100: fc33 7a33 af23 9f33 00db af33 73fc b733
00000110: b286 f133 13bf 8b33 62fe 8033 a64d 8433
00000120: f466 7a33 b782 9a33 9329 a333 fdd3 9e33
00000130: 68ee 8733 c7b0 8133 4236 7d33 ee62 8533
00000140: 14dd 7d33 1637 8633 0e10 8033 9a57 8733
00000150: c1d7 7c33 cde0 8633 77d8 8733 2503 8a33
00000160: e00a 8033 d844 3733 c4bf 5233 349b 5933
00000170: 9fd5 5933 d75d 5233 3200 4e33 a512 4233
00000180: 7be2 3e33 ef41 2633 91ad b734 dbec b934
00000190: 26dc 9f34 424d 9f34 3d9b 2e33 7663 2f33
000001a0: 352c 3133 5461 2333 9a96 ff32 0b87 ff32
000001b0: 8190 0633 c67e f932 7aa9 2c33 e8d3 2b33
000001c0: 822b 3333 63e8 2733 9482 3833 42c4 3533
000001d0: 7cbf 4233 ffd4 2933 c254 3533 0157 3433
000001e0: a2be 3d33 44ae 3433 93d6 3533 1e99 3433
000001f0: da03 3e33 c3c8 3433 73ef 4b33 bc35 4333
00000200: b32f 3a33 096b 2d33 56cc 6f33 6177 4833
00000210: a36b 5233 0b1a 4033 2751 2e33 6c45 2e33
00000220: 7630 2e33 98ff 2d33 d3e4 ff32 96ee ff32
00000230: 49f7 ff32 19ff ff32 ff01 1733 c7fe 3333
00000240: c1f0 3433 6e1d 3533 6424 3533 4cd2 3333
00000250: a5c1 3433 32eb 3433 0bf0 3433 6fd2 4a33
00000260: f000 6933 db07 3633 8bd9 3533 b41f 3633
00000270: 9caf 3233 d69a 3733 90a0 5133 1fd9 6133
00000280: abd0 7c33 cee8 9633 a26b 4933 88e5 4333
00000290: 4f58 3f33 0ada 3133 b773 2833 5538 2e33
000002a0: 733d 3333 3fbd 2833 c262 3433 2080 3533
000002b0: b0e0 3d33 c130 2933 9d10 3633 6f60 3533
000002c0: 6b66 3b33 ac2b 2e33 42e7 4b32 d904 5e32
000002d0: c421 7432 c1b0 8a32 d45a 5432 b37e 5832
000002e0: 4217 6a32 f930 6b32 439f ea32 4ff6 c233
000002f0: 64d2 c333 f8c9 9733 0b97 8233 4071 3532
00000300: 2fe9 3632 ddb7 9d32 08ae bc32 3ea3 5e32
00000310: d609 5b32 3070 aa32 985c c832 e806 4332
00000320: 2c8f 4232 e1cf a232 102e cf32 b622 8432
00000330: b114 7c32 5053 ae32 0d85 d832 9bdc 6d32
00000340: 4c68 6432 5cbb ab32 1495 db32 c555 6e32
00000350: 1bd3 6332 2fbf ab32 8769 db32 c0f7 7f32
00000360: f3c6 7432 1bd6 ab32 0966 e232 de9d 8e32
00000370: 6dc3 7f32 930a 7732 69bb 8232 ba86 3332
00000380: df1e 3532 dad5 3632 ae94 3832 5d30 6032
00000390: dbbd 5f32 995b 5f32 f805 5f32 702e 3232
000003a0: 70f9 ab32 b352 ac32 667a ac32 e48e ac32
000003b0: 065c ac32 afac ac32 1ad5 ac32 32ed ac32
000003c0: 27e7 a832 0015 8632 e97f ae32 cb17 ad32
000003d0: 990f ad32 9c73 9232 e4ac 8932 7f83 ad32
000003e0: 6350 b332 46e9 9732 cc5e 8632 8656 7532
000003f0: e08b 7232 2ae8 b032 9dac e532 fee1 4232
7.157643e-08 7.7488174e-08 8.456757e-08 7.543274e-08 7.758126e-08 8.200978e-08 7.628812e-08 7.3432766e-08
6.132129e-08 5.533754e-07 5.6199235e-07 4.772756e-07 4.848018e-07 5.1685685e-08 5.186066e-08 5.3344113e-08
4.913704e-08 4.1404302e-08 4.1667473e-08 4.392651e-08 4.052047e-08 6.017474e-08 5.846472e-08 6.285075e-08
5.822069e-08 6.119995e-08 6.15751e-08 5.9118943e-08 5.620392e-08 6.24238e-08 6.042689e-08 5.9652116e-08
5.6481078e-08 6.252528e-08 6.035587e-08 5.970649e-08 5.645567e-08 7.28376e-08 7.535371e-08 7.3532185e-08
6.3637366e-08 8.616875e-08 7.850171e-08 7.31253e-08 7.106661e-08 5.1429243e-08 5.1257256e-08 5.1096062e-08
5.0877638e-08 4.1145828e-08 4.1149328e-08 4.115224e-08 4.115491e-08 6.442833e-08 5.7011952e-08 5.7381627e-08
5.740661e-08 5.733421e-08 5.717491e-08 5.7538312e-08 5.7551535e-08 5.7470352e-08 7.592609e-08 7.7363026e-08
5.825494e-08 7.410505e-08 8.1889084e-08 8.567522e-08 1.1246938e-07 6.507448e-08 6.0067364e-08 6.160853e-08
5.8301296e-08 7.194961e-08 7.597841e-08 7.396009e-08 6.329793e-08 6.039186e-08 5.89555e-08 6.21129e-08
5.9107222e-08 6.249881e-08 5.963385e-08 6.302362e-08 5.886955e-08 6.280752e-08 6.325802e-08 6.426698e-08
5.9624426e-08 4.267062e-08 4.9068845e-08 5.0665406e-08 5.0718537e-08 4.8979782e-08 4.796329e-08 4.5186102e-08
4.4443805e-08 3.8709853e-08 3.4212692e-07 3.463127e-07 2.9776237e-07 2.967227e-07 4.065372e-08 4.0835822e-08
4.125123e-08 3.8039914e-08 2.9754393e-08 2.9747317e-08 3.1330732e-08 2.9045065e-08 4.020101e-08 4.0006768e-08
4.1716255e-08 3.9094072e-08 4.29596e-08 4.2320842e-08 4.53433e-08 3.9542098e-08 4.2219433e-08 4.1988645e-08
4.417837e-08 4.206801e-08 4.23375e-08 4.2048775e-08 4.4241325e-08 4.2092108e-08 4.74824e-08 4.5450847e-08
4.3349882e-08 4.037705e-08 5.5832366e-08 4.6674703e-08 4.899233e-08 4.472717e-08 4.058634e-08 4.057567e-08
4.0556607e-08 4.0512163e-08 2.9789964e-08 2.9794403e-08 2.979836e-08 2.9801912e-08 3.5159243e-08 4.1908404e-08
4.212848e-08 4.2169113e-08 4.2175444e-08 4.186795e-08 4.2085635e-08 4.2123425e-08 4.2127834e-08 4.722318e-08
5.4250393e-08 4.238232e-08 4.23402e-08 4.240401e-08 4.160357e-08 4.274883e-08 4.8807635e-08 5.2584365e-08
5.8863105e-08 7.027266e-08 4.689685e-08 4.5610733e-08 4.455097e-08 4.140933e-08 3.922079e-08 4.0563766e-08
4.1732573e-08 3.9287666e-08 4.1999336e-08 4.2258876e-08 4.4209344e-08 3.939272e-08 4.2390287e-08 4.2230052e-08
4.363248e-08 4.055225e-08 1.1868737e-08 1.2923203e-08 1.4210347e-08 1.6145693e-08 1.2360676e-08 1.2601663e-08
1.3625881e-08 1.3689935e-08 2.731361e-08 9.078632e-08 9.118665e-08 7.068223e-08 6.081071e-08 1.0561337e-08
1.0646814e-08 1.8360817e-08 2.196522e-08 1.2959218e-08 1.2749714e-08 1.9841622e-08 2.3325171e-08 1.1352064e-08
1.132484e-08 1.8953815e-08 2.4118918e-08 1.5382607e-08 1.4673035e-08 2.0294152e-08 2.5206214e-08 1.38453755e-08
1.3295061e-08 1.9992221e-08 2.5562748e-08 1.3872925e-08 1.3261139e-08 1.999396e-08 2.5542944e-08 1.4899285e-08
1.4247905e-08 2.0004384e-08 2.6356263e-08 1.6602765e-08 1.4887388e-08 1.43796965e-08 1.5219216e-08 1.0449805e-08
1.0542606e-08 1.06424185e-08 1.07440155e-08 1.3049513e-08 1.30234765e-08 1.3001135e-08 1.29816655e-08 1.0371522e-08
2.0020451e-08 2.0061043e-08 2.0079096e-08 2.0088414e-08 2.0065283e-08 2.0101963e-08 2.0120343e-08 2.01313e-08
1.966289e-08 1.5609203e-08 2.0314433e-08 2.015067e-08 2.0146944e-08 1.704921e-08 1.602752e-08 2.0199648e-08
2.0874898e-08 1.7684794e-08 1.5642762e-08 1.428055e-08 1.4118058e-08 2.0594673e-08 2.6737604e-08 1.1343671e-08

exp_avg f4 [32]
00000000: 3747 0cb7 9d79 6e38 606d 0d38 2194 34b7
00000010: 7434 7b37 7386 9937 9581 fdb7 4920 0637
00000020: 3775 ca37 8798 b238 c1f2 30b8 6bc8 ebb8
00000030: 9fd8 02b7 de5b 6f36 d3a8 18b8 4e6b 3937
00000040: 6a9b e2b6 06fa 90b6 5a52 1eb8 8095 08b8
00000050: cde3 15b8 f2e2 9cb7 87ba cd38 b980 0638
00000060: 387f a7b7 0ece 3d38 0b1a ebb7 341d 03b8
00000070: e336 4fb8 88c5 8eb6 4c19 5c37 ac72 b9b8
-8.361231e-06 5.6856883e-05 3.3718883e-05 -1.0763325e-05 1.49729785e-05 1.830163e-05 -3.0220292e-05 7.994539e-06
2.4134859e-05 8.516112e-05 -4.2187752e-05 -0.00011243004 -7.79904e-06 3.566725e-06 -3.6396854e-05 1.1051843e-05
-6.7534174e-06 -4.320641e-06 -3.774683e-05 -3.256416e-05 -3.5736524e-05 -1.8702329e-05 9.809905e-05 3.2067972e-05
-1.9967192e-05 4.5253015e-05 -2.802631e-05 -3.126003e-05 -4.9403763e-05 -4.2549254e-06 1.3118912e-05 -8.842847e-05

exp_avg_sq f4 [32]
00000000: bab4 1a34 13ae be33 e914 db32 e000 3b33
00000010: a7d0 c133 0311 6832 c64c 9732 45cb 7832
00000020: c24b 6133 43bf 3434 ca54 5534 90b2 e133
00000030: cf7e c032 20ab 1732 fb98 e232 fff0 e331
00000040: 4951 0133 816d 8431 d2ca 0634 9788 5633
00000050: 42f3 fa32 4fc6 b832 72de 6234 90b9 ba32
00000060: cf23 2e33 04d4 7e32 4037 6832 ffe1 a832
00000070: 3256 c133 8062 2933 7b05 cb31 dc0a ad33
1.4408116e-07 8.8792284e-08 2.5504464e-08 4.3540126e-08 9.0252165e-08 1.3508045e-08 1.7613626e-08 1.4481718e-08
5.2455796e-08 1.6833387e-07 1.9868017e-07 1.0509859e-07 2.2409408e-08 8.828266e-09 2.637943e-08 6.6339676e-09
3.010908e-08 3.8541548e-09 1.2553508e-07 4.9949985e-08 2.9214451e-08 2.15106e-08 2.1128815e-07 2.1737634e-08
4.05451e-08 1.4832953e-08 1.351674e-08 1.9660545e-08 9.002942e-08 3.9437964e-08 5.9087006e-09 8.0579156e-08

exp_avg f4 [16, 32]
00000000: 26c3 ccb7 abd5 5538 03a4 3239 3dd8 96b7
00000010: 171c 4b38 43b7 f133 f444 bcb7 0985 e037
00000020: 41bb 7038 9588 2738 dc84 efb8 78c4 e1b6
00000030: 5448 78b7 5712 5438 a79f 7338 8876 17b9
00000040: c039 b7b7 fe01 34b8 6f3a 5cb8 9212 2c38
00000050: 313d 51b9 423a cd38 ca8f 6337 29f9 b4b6
00000060: 73e6 6837 51bd 4f38 ddfd 1fb7 3c48 beb7
00000070: 4268 01b7 5b9a 85b7 8cab af37 4d70 a636
00000080: 81f0 03b7 fe8c d738 ddd1 49b7 a0c8 a938
00000090: 7c08 80b9 4b98 2837 df19 1039 790a 8eb7
000000a0: 7d32 c4b8 e40c e238 8a97 29b9 cc01 05b6
000000b0: 767a 3438 efd8 70b8 f290 ae36 959d 6737
000000c0: 4613 0138 1b54 9ab8 6ed1 8e35 76f1 d037
000000d0: ef3c 3db8 4c22 c5b6 9aba 09b9 61f1 4238
000000e0: c276 3fb7 4c09 8737 0eb2 eab5 7030 79b8
000000f0: 2698 8838 e6f2 5939 94e0 4139 193e 01b7
00000100: ce24 a035 e3f2 e7b6 9817 1db9 0e8b ffb8
00000110: 239a 4cb7 ab5a 1038 4dd8 b8b3 5179 fdb7
00000120: 01d1 edb6 195e d8b7 81a7 acb6 004e 4cb7
00000130: 6f0c 38b8 3f63 41b7 a66f 55b8 4565 b1b8
00000140: 6e67 adb8 75a5 bfb7 b54f b9b7 56b4 34b8
00000150: 0529 8fb8 d47a aab8 84a8 07b7 6060 81b7
00000160: 6b53 c6b8 5d05 cdb8 b58c 55b7 d50b 4f38
00000170: 607e 2337 1afa a3b7 0d15 62b7 f693 bf37
00000180: 0400 0000 0400 0000 0400 0000 0400 0000
00000190: 0400 0000 0400 0000 0400 0000 0400 0000
000001a0: 0400 0000 0400 0000 0400 0000 0400 0000
000001b0: 0400 0000 0400 0000 0400 0000 0400 0000
000001c0: 0400 0000 0400 0000 0400 0000 0400 0000
000001d0: 0400 0000 0400 0000 0400 0000 0400 0000
000001e0: 0400 0000 0400 0000 0400 0000 0400 0000
000001f0: 0400 0000 0400 0000 0400 0000 0400 0000
00000200: 946b 4436 8040 10b8 5d5d deb7 eb9a eb38
00000210: 2195 3736 e0c4 43b8 7a2e 3438 8e90 89b8
00000220: cf6e 17b8 1a40 0236 737b e9b7 c712 f7b8
00000230: 3932 beb8 ca42 3c37 5338 a138 f333 9fb7
00000240: 6555 0c38 f9eb b9b7 0d02 a437 2f46 6f37
00000250: 9ef1 de38 eabf 3cb8 6e92 7433 7d03 d8b8
00000260: 3b3a bab5 1c7e 59b8 2f67 9d36 b79d 15b8
00000270: edf1 69b7 7257 a1b6 4953 6ab7 81b8 0cb5
00000280: 878d 55b7 a026 e8b8 e926 4bba 1d52 21ba
00000290: ce5f 4fb9 80bd 9ab9 474d 0739 101c 87b6
000002a0: 173e fcb8 c518 94b8 6f64 98ba e205 2aba
000002b0: a438 09ba 6f27 bbb8 ebd0 3736 97a2 54b8
000002c0: 2f55 29ba eab4 13b9 f778 1438 e508 52b6
000002d0: 5592 20ba 463a d4b9 cdc5 c8b8 577a a936
000002e0: 56ea b936 fa72 72b9 f792 2336 b819 72ba
000002f0: 17d6 a637 ae6f 0e37 58f6 b5b7 26fd 18b8
00000300: 677a 24b8 27e6 90b8 129d 6638 1009 7137
00000310: b79d 8039 fde1 a137 4bc9 1437 ef34 2ab7
00000320: 6ca5 5a38 cd54 8eb8 b7ea c839 f1bd 5d37
00000330: d65d ff37 524b 8e38 293f 57b7 165e 45b6
00000340: df69 29b7 7932 9538 6206 9435 84cb 8937
00000350: d2fb 2c38 7f12 4439 d2ca 1d39 8cb2 e5b7
00000360: 6a7b 1438 7a9f 0db8 8083 1634 7a94 7d38
00000370: 2643 04b7 a47a 2fb9 302c 13b9 ed01 e6b5
00000380: b490 2036 25cc 83b4 0cdf 8ab4 69c8 d5b5
00000390: 77e4 8036 3872 b3b3 f0cf bdb5 4824 6bb5
000003a0: b191 9ab6 4fa6 7cb6 65f0 16b6 5fa6 9735
000003b0: f550 05ae 8857 5036 38a4 5eb3 98e4 cd33
000003c0: 172b 91b4 0928 d134 7322 a633 f75f 2db5
000003d0: 8e0c 2db3 0c78 1036 c30b da36 1d35 bb35
000003e0: f1c8 95b5 8180 0735 5e6b 2406 1800 3fb6
000003f0: 8f96 f2b5 210e 10b6 aaeb 4ab3 eabc 0493
-2.4409568e-05 5.098215e-05 0.00017036502 -1.7982087e-05 4.8425132e-05 1.1255772e-07 -2.2443455e-05 2.676483e-05
5.7394853e-05 3.9943105e-05 -0.00011421155 -6.7283945e-06 -1.4798792e-05 5.056182e-05 5.8084403e-05 -0.00014444639
-2.1842192e-05 -4.29172e-05 -5.2506508e-05 4.102529e-05 -0.00019954589 9.786013e-05 1.3563733e-05 -5.393424e-06
1.3881933e-05 4.952896e-05 -9.536246e-06 -2.2683402e-05 -7.713274e-06 -1.5926713e-05 2.0941508e-05 4.960259e-06
-7.864205e-06 0.00010278261 -1.2029396e-05 8.095917e-05 -0.00024420384 1.0049039e-05 0.00013742548 -1.6932596e-05
-9.3554125e-05 0.00010778921 -0.00016173549 -1.981959e-06 4.3029395e-05 -5.7422494e-05 5.202478e-06 1.3805363e-05
3.0773946e-05 -7.358958e-05 1.0640777e-06 2.4907971e-05 -4.511786e-05 -5.87505e-06 -0.00013134853 4.6478006e-05
-1.1412138e-05 1.6097583e-05 -1.7486179e-06 -5.9411337e-05 6.513325e-05 0.0002078522 0.00018489576 -7.703457e-06
1.193164e-06 -6.912612e-06 -0.00014981476 -0.000121852485 -1.2195235e-05 3.4416717e-05 -8.6075126e-08 -3.0216443e-05
-7.0874817e-06 -2.5793024e-05 -5.1454995e-06 -1.2177508e-05 -4.38806e-05 -1.1526804e-05 -5.0887138e-05 -8.4588806e-05
-8.268548e-05 -2.2846021e-05 -2.2090835e-05 -4.3083295e-05 -6.826412e-05 -8.12911e-05 -8.085863e-06 -1.5422876e-05
-9.4569135e-05 -9.776161e-05 -1.272855e-05 4.9363665e-05 9.744981e-06 -1.9547577e-05 -1.3475551e-05 2.2837874e-05
6e-45 6e-45 6e-45 6e-45 6e-45 6e-45 6e-45 6e-45
6e-45 6e-45 6e-45 6e-45 6e-45 6e-45 6e-45 6e-45
6e-45 6e-45 6e-45 6e-45 6e-45 6e-45 6e-45 6e-45
6e-45 6e-45 6e-45 6e-45 6e-45 6e-45 6e-45 6e-45
2.9268895e-06 -3.4392346e-05 -2.6507938e-05 0.00011234529 2.735593e-06 -4.6674977e-05 4.295863e-05 -6.5595945e-05
-3.6104404e-05 1.9408822e-06 -2.783325e-05 -0.00011781375 -9.069261e-05 1.1221224e-05 7.6875695e-05 -1.8978468e-05
3.345813e-05 -2.2163602e-05 1.9551278e-05 1.4261851e-05 0.000106307896 -4.5001427e-05 5.6943854e-08 -0.00010300332
-1.3875027e-06 -5.185428e-05 4.6909768e-06 -3.567125e-05 -1.394421e-05 -4.808354e-06 -1.3966878e-05 -5.242255e-07
-1.2728741e-05 -0.000110698165 -0.00077496335 -0.00061538984 -0.00019776748 -0.00029514357 0.00012903391 -4.0265804e-06
-0.000120278615 -7.0618036e-05 -0.0011626611 -0.0006485862 -0.00052345754 -8.9242e-05 2.7390731e-06 -5.0696162e-05
-0.0006459532 -0.00014086408 3.5398607e-05 -3.1297616e-06 -0.0006125321 -0.00040479208 -9.5735864e-05 5.0508347e-06
5.54071e-06 -0.0002312175 2.4374438e-06 -0.00092354 1.9888435e-05 8.489862e-06 -2.1691594e-05 -3.6475387e-05
-3.9214643e-05 -6.909324e-05 5.4982556e-05 1.4366829e-05 0.0002453157 1.929793e-05 8.868355e-06 -1.0145114e-05
5.212931e-05 -6.786883e-05 0.0003832185 1.3216851e-05 3.0442065e-05 6.785117e-05 -1.2829704e-05 -2.9410053e-06
-1.0097835e-05 7.114275e-05 1.1028717e-06 1.6426442e-05 4.124252e-05 0.00018698907 0.00015048243 -2.738207e-05
3.5400888e-05 -3.3765544e-05 1.4017678e-07 6.045818e-05 -7.883447e-06 -0.00016734988 -0.00014035474 -1.7136896e-06
2.3926086e-06 -2.4549186e-07 -2.586679e-07 -1.5928064e-06 3.841294e-06 -8.356113e-08 -1.4142115e-06 -8.759712e-07
-4.6065184e-06 -3.764773e-06 -2.249167e-06 1.1298797e-06 -3.0312603e-11 3.1045365e-06 -5.183776e-08 9.587637e-08
-2.7039707e-07 3.8958413e-07 7.736244e-08 -6.458717e-07 -4.029112e-08 2.1527549e-06 6.4982755e-06 1.3948044e-06
-1.1159847e-06 5.0478417e-07 3.0923853e-35 -2.8461272e-06 -1.8074223e-06 -2.1465896e-06 -4.7246125e-08 -1.6753884e-27

exp_avg_sq f4 [16, 32]
00000000: 18cf 0833 d783 2233 3764 1535 c3a7 8135
00000010: ede7 a033 a6d9 1933 2483 0d35 b52f 4133
00000020: 9144 8633 1fa7 0333 e4aa 4e36 232d 9435
00000030: d69a 2934 2383 6233 1924 c933 e31c ab33
00000040: c951 e033 26ca 2633 3dfb 8633 b759 7033
00000050: a1b4 a834 ce0b b834 2df5 9933 9c14 b033
00000060: 23b4 df31 f784 cc32 a162 8d32 5ad9 d233
00000070: db32 2f32 c043 d832 4e77 7133 c588 d330
00000080: 2cc4 2f34 7ab8 5634 0872 0c35 217a c535
00000090: 549f c334 a477 3b33 78ff 3d35 a816 a232
000000a0: 63e8 c834 f716 9d34 de91 1b36 89e9 4235
000000b0: 17a0 5f33 aaec 6434 a46c b433 79e6 9834
000000c0: ea8d eb33 2c1f 2c33 a1ab 3a32 48ea a634
000000d0: d41a a833 cf52 ae35 e3e5 c134 7ffe 0f33
000000e0: 953e b532 faea 8333 f8cc a031 1252 4533
000000f0: 21e9 0b33 986a 4a34 aee8 8d34 3c2c 9d31
00000100: 5c95 a231 49a0 b531 ae46 5835 ef50 aa34
00000110: fb8c be31 618c 2b34 a392 d52e 73b1 3333
00000120: 8e4c d431 9c7a da31 d133 6234 d297 a634
00000130: 1ed7 4934 66ac 7c31 4d94 e134 7cf4 b133
00000140: ab4e 0e35 fe39 1933 d7ce dd31 f35f 4132
00000150: 2498 c534 30a3 d933 c169 8c31 8137 4b34
00000160: 074d 0c34 ae39 1234 cb37 fe30 32d1 3834
00000170: 08cd 9234 d88e 5f31 5f8c 1e32 0b4b 6832
00000180: f401 0000 f401 0000 f401 0000 f401 0000
00000190: f401 0000 f401 0000 f401 0000 f401 0000
000001a0: f401 0000 f401 0000 f401 0000 f401 0000
000001b0: f401 0000 f401 0000 f401 0000 f401 0000
000001c0: f401 0000 f401 0000 f401 0000 f401 0000
000001d0: f401 0000 f401 0000 f401 0000 f401 0000
000001e0: f401 0000 f401 0000 f401 0000 f401 0000
000001f0: f401 0000 f401 0000 f401 0000 f401 0000
00000200: 5391 3f30 d228 5c32 11f9 ef34 08ba 1235
00000210: 3718 9232 b7de b032 e834 e433 9ae0 8932
00000220: 53fc a732 1d69 a22e 6f8c d035 4fe3 5635
00000230: 380f a134 9377 aa31 4550 6634 735a a331
00000240: bbdc 8434 5f75 df31 527e 5032 fbee a731
00000250: ce8d 0634 fc2d 8134 db0d f12f 17e1 de33
00000260: 105c 7132 c3b2 9733 bd78 4731 3385 4033
00000270: 116a c032 a09a 962f dc93 9331 6a2a 2f2f
00000280: a35d d233 2f9a 0934 5d7a 0d37 b913 3437
00000290: 693c 3734 3c0d cc35 f913 7535 be29 6735
000002a0: 6109 1934 cea3 c733 7ff7 ce37 75fd 1737
000002b0: 3ddb 5536 125c f433 f532 cb36 d88c 8f35
000002c0: 3af3 ea36 49f6 1135 508f 9633 b029 fb33
000002d0: 80dc f536 7510 1c36 fcf4 3434 8b86 0a36
000002e0: ad09 2134 6b81 5435 08c8 a132 7cda 1c36
000002f0: 49ee 6034 ddd0 7e33 c0f7 8f33 8983 5d34
00000300: 3105 cf33 e4de fa33 0c31 dd34 51a5 8535
00000310: ff47 3134 5b11 3734 09e2 5a35 9974 2133
00000320: 39f0 4b34 c0cd d933 c730 8836 3390 aa35
00000330: 4f1b dd33 0a48 0234 188a d033 a2fd b334
00000340: 0523 2c34 f825 4333 acfd a02f 817a 1734
00000350: f834 0a34 df91 ed35 4491 2c34 345f eb32
00000360: 1bb6 8f32 94a5 a233 1311 c32d 2554 7233
00000370: 4767 0533 f377 c433 4852 fe33 6e6b ce32
00000380: 7069 bb2e dc95 9d2e 5d1c ce30 683e 0b30
00000390: 8b1a 9630 c0b4 2d2e bbba 0130 4b7f a62e
000003a0: 4493 0031 bea4 3b30 ea0f f931 b2fb 7331
000003b0: cbc1 8f2d 3f03 7a31 96f1 a42d a8e7 b42c
000003c0: 3a95 2e2e 942f 302e 2b1e 972c 77ee a92f
000003d0: 7526 cd2c b526 1a31 ebf3 1032 f904 662f
000003e0: 17a5 5f2f 543b 2530 ab1f 282a ca41 9130
000003f0: bec4 0a2f 5757 2b30 a804 752e 63a7 7d26
3.1853318e-08 3.7838472e-08 5.565266e-07 9.660074e-07 7.492768e-08 3.582104e-08 5.271743e-07 4.4979704e-08
6.2523334e-08 3.065281e-08 3.0795863e-06 1.1039996e-06 1.579568e-07 5.2738994e-08 9.366358e-08 7.9680625e-08
1.04456895e-07 3.883374e-08 6.285561e-08 5.596095e-08 3.1423863e-07 3.428126e-07 7.169215e-08 8.1993875e-08
6.5106334e-09 2.3809191e-08 1.6459412e-08 9.818423e-08 1.0197904e-08 2.5176519e-08 5.6220692e-08 1.5391143e-09
1.6369512e-07 1.9997415e-07 5.232e-07 1.4713188e-06 3.6437507e-07 4.3648143e-08 7.077974e-07 1.8869585e-08
3.7421987e-07 2.9260238e-07 2.3181706e-06 7.261047e-07 5.2066834e-08 2.1320253e-07 8.401665e-08 2.8479897e-07
1.0968854e-07 4.007522e-08 1.0865649e-08 3.1090372e-07 7.8279896e-08 1.2988111e-06 3.6116316e-07 3.3526245e-08
2.1099632e-08 6.142905e-08 4.679915e-09 4.594228e-08 3.257549e-08 1.8851495e-07 2.6432593e-07 4.5743302e-09
4.7318007e-09 5.2860156e-09 8.0569123e-07 3.1723854e-07 5.5457554e-09 1.5976686e-07 9.7121665e-11 4.1838074e-08
6.1787153e-09 6.358574e-09 2.1066741e-07 3.1030373e-07 1.8797843e-07 3.6768824e-09 4.201742e-07 8.286676e-08
5.30136e-07 3.5675832e-08 6.4554615e-09 1.1255895e-08 3.6804806e-07 1.01345336e-07 4.086559e-09 1.892604e-07
1.3066538e-07 1.3618293e-07 1.849679e-09 1.721244e-07 2.73438e-07 3.2531968e-09 9.228727e-09 1.352124e-08
7e-43 7e-43 7e-43 7e-43 7e-43 7e-43 7e-43 7e-43
7e-43 7e-43 7e-43 7e-43 7e-43 7e-43 7e-43 7e-43
7e-43 7e-43 7e-43 7e-43 7e-43 7e-43 7e-43 7e-43
7e-43 7e-43 7e-43 7e-43 7e-43 7e-43 7e-43 7e-43
6.9691913e-10 1.2814967e-08 4.469844e-07 5.465995e-07 1.7007649e-08 2.0590376e-08 1.0626701e-07 1.6051036e-08
1.9556103e-08 7.385579e-11 1.5538079e-06 8.005199e-07 2.999966e-07 4.961245e-09 2.1449621e-07 4.7542073e-09
2.4747519e-07 6.5034977e-09 1.2135915e-08 4.8875086e-09 1.2531311e-07 2.406158e-07 4.384749e-10 1.0378624e-07
1.4048979e-08 7.064002e-08 2.9026943e-09 4.4824628e-08 2.2399975e-08 2.739471e-10 4.2950727e-09 1.5931226e-10
9.7959195e-08 1.2815211e-07 8.432745e-06 1.0733428e-05 1.706518e-07 1.5203036e-06 9.1298676e-07 8.611495e-07
1.4252647e-07 9.2964555e-08 2.4672363e-05 9.059314e-06 3.1867087e-06 1.1378883e-07 6.0558036e-06 1.0695321e-06
7.0020587e-06 5.43751e-07 7.010988e-08 1.1695681e-07 7.3272386e-06 2.325539e-06 1.6852931e-07 2.0641917e-06
1.4997813e-07 7.916448e-07 1.883383e-08 2.3372986e-06 2.0948313e-07 5.9328944e-08 6.704022e-08 2.0630081e-07
9.640133e-08 1.1682076e-07 4.1200144e-07 9.957386e-07 1.6510602e-07 1.7049517e-07 8.1540253e-07 3.759178e-08
1.8993241e-07 1.01422756e-07 4.0587943e-06 1.2707955e-06 1.0296082e-07 1.2133401e-07 9.710874e-08 3.352589e-07
1.6031488e-07 4.5436508e-08 2.9284075e-10 1.4107538e-07 1.2871521e-07 1.770033e-06 1.6071596e-07 2.7400894e-08
1.6730203e-08 7.573831e-08 2.2176516e-11 5.6421545e-08 3.1060406e-08 9.14878e-08 1.18427636e-07 2.403041e-08
8.522505e-11 7.166154e-11 1.4996534e-09 5.065659e-10 1.092148e-09 3.9496184e-11 4.7195287e-10 7.571418e-11
1.8710162e-09 6.8264316e-10 7.248663e-09 3.5504226e-09 1.634328e-11 3.6381633e-09 1.8751927e-11 5.1416267e-12
3.969556e-11 4.0060025e-11 4.2950274e-12 3.091036e-10 5.83072e-12 2.2431952e-09 8.437364e-09 2.0920145e-10
2.0340384e-10 6.011096e-10 1.4932384e-13 1.0568837e-09 1.2620924e-10 6.2333555e-10 5.5710686e-11 8.800386e-16

exp_avg f4 [16]
00000000: 3af8 c435 7f8d f2b6 2af5 1bb7 0400 0000
00000010: f25e 9ab6 3526 95b8 7f4e 4337 d2dd b932
00000020: 0400 0000 528b 3737 c422 e337 6d82 18b7
00000030: 0400 0000 1a80 59b7 0243 99b7 8ca5 1634
1.4675381e-06 -7.2286343e-06 -9.295802e-06 6e-45 -4.6006107e-06 -7.11199e-05 1.1641182e-05 2.1637707e-08
6e-45 1.0940088e-05 2.7076698e-05 -9.090273e-06 6e-45 -1.2964034e-05 -1.8270224e-05 1.4030064e-07

exp_avg_sq f4 [16]
00000000: 22dd bd31 020b d731 0296 5c31 f401 0000
00000010: d099 9531 405b 9433 3c9d 0432 fa64 0b2e
00000020: f401 0000 cefc 0e31 1f6c a932 4266 8e31
00000030: f401 0000 1948 b430 1548 c532 b035 b631
5.525764e-09 6.258575e-09 3.2099483e-09 7e-43 4.353957e-09 6.908385e-08 7.719162e-09 3.1694626e-11
7e-43 2.0807422e-09 1.9723357e-08 4.1443693e-09 7e-43 1.3117215e-09 2.2966598e-08 5.3030007e-09

exp_avg f4 [4, 16]
00000000: 8f35 093a 4b01 ea39 c641 8738 0400 0000
00000010: 92f9 4b3a 4687 b8bb 61ed 7ab9 1a87 6136
00000020: 0400 0080 752d d439 3ca0 97ba 5551 3dba
00000030: 0400 0080 f472 9cba 27d6 50bb dfbd 82ba
00000040: 8d8a 4639 7091 9f39 0fc4 0eb8 0400 0000
00000050: 8a83 dc37 9a9d c43a 89ce 6736 5cb3 f1b2
00000060: 0400 0000 111b a4b9 29fd 973a 2cab c8b8
00000070: 0400 0000 8a99 7f3a 4f91 da38 8c43 e9b7
00000080: 9438 c239 cc1c 423a a85d c637 0400 0000
00000090: 6887 ae39 9d06 3fba 5158 92b9 dfd2 e7b3
000000a0: 0400 0000 6c59 adb7 8371 d1b9 e437 4bb9
000000b0: 0400 0080 87ed 9ab9 619d 61ba efa6 8a39
000000c0: 0000 0000 0400 0000 0400 0000 0000 0000
000000d0: 0400 0080 0400 0000 0400 0000 0000 0000
000000e0: 0000 0000 0400 0000 0400 0000 0400 0000
000000f0: 0000 0000 0400 0000 0400 0000 0400 0000
0.0005234116 0.0004463292 6.449553e-05 6e-45 0.00077810243 -0.00563136 -0.00023930288 3.3606252e-06
-6e-45 0.0004046966 -0.0011568139 -0.0007221897 -6e-45 -0.0011936114 -0.0031865926 -0.0009974799
0.00018934366 0.00030435203 -3.4038032e-05 6e-45 2.6287296e-05 0.0015000582 3.4541902e-06 -2.8137656e-08
6e-45 -0.00031300684 0.0011595833 -9.5686264e-05 6e-45 0.0009750357 0.00010422116 -2.7807218e-05
0.00037044717 0.0007404804 2.3647051e-05 6e-45 0.00033288752 -0.0007287057 -0.0002791309 -1.0795133e-07
6e-45 -2.0664847e-05 -0.0003994816 -0.0001938041 -6e-45 -0.0002955014 -0.000860652 0.00026445786
0.0 6e-45 6e-45 0.0 -6e-45 6e-45 6e-45 0.0
0.0 6e-45 6e-45 6e-45 0.0 6e-45 6e-45 6e-45

exp_avg_sq f4 [4, 16]
00000000: 5b92 7637 10a4 bb37 52c4 5d34 f401 0000
00000010: de9f 8f37 51e3 6a3a 1894 5e37 c26a 2932
00000020: f401 0000 719e 2137 9f7a 8d38 d6a3 1338
00000030: f401 0000 4850 1437 80c1 4439 709b da37
00000040: db80 2a37 fd0f 2d37 557c 3533 f401 0000
00000050: 0e7c 8d33 ec51 4437 a4a2 a037 a8f0 a832
00000060: f401 0000 26cc 5935 50b6 5138 b032 c735
00000070: f401 0000 8d63 0836 04f9 f634 50f2 8435
00000080: 1647 6f37 121f b537 e613 f731 f401 0000
00000090: 1835 e235 e83d bd38 eced a337 0f2e bb2e
000000a0: f401 0000 1336 fb35 9997 2538 48cf 1936
000000b0: f401 0000 ee07 4235 69a2 8f37 9b36 9d37
000000c0: 0000 0000 f401 0000 f401 0000 0000 0000
000000d0: f401 0000 9321 0406 f401 0000 0000 0000
000000e0: 0000 0000 8028 c010 4455 2d0e f401 0000
000000f0: 0000 0000 f401 0000 f401 0000 f401 0000
1.4696819e-05 2.2368535e-05 2.065365e-07 7e-43 1.7121372e-05 0.00089602644 1.3266712e-05 9.861369e-09
7e-43 9.633238e-06 6.746244e-05 3.5200115e-05 7e-43 8.840179e-06 0.00018764101 2.6060006e-05
1.0162791e-05 1.0315326e-05 4.2255426e-08 7e-43 6.5883896e-08 1.1701584e-05 1.9149222e-05 1.9667212e-08
7e-43 8.1135875e-07 4.9999275e-05 1.4841407e-06 7e-43 2.0323525e-06 4.6002253e-07 9.905289e-07
1.4262061e-05 2.159135e-05 7.1909083e-09 7e-43 1.6853764e-06 9.023753e-05 1.9541905e-05 8.511957e-11
7e-43 1.8716695e-06 3.9480252e-05 2.291943e-06 7e-43 7.228217e-07 1.7122557e-05 1.8741286e-05
0.0 7e-43 7e-43 0.0 7e-43 2.4851107e-35 7e-43 0.0
0.0 7.579305e-29 2.136495e-30 7e-43 0.0 7e-43 7e-43 7e-43

exp_avg f4 [4]
00000000: f236 62b9 b87f ff37 bbfa 1bb8 0400 0000
-0.00021573508 3.0457843e-05 -3.718839e-05 6e-45

exp_avg_sq f4 [4]
00000000: ebc9 3935 668a cb32 e824 9933 e57c 8f0c
6.92117e-07 2.3695247e-08 7.131331e-08 2.2107807e-31

exp_avg f4 [1, 4]
00000000: 88c0 b4bc 13f0 48ba e0e7 fe3b 0400 0080
-0.022064462 -0.00076651684 0.0077791065 -6e-45

exp_avg_sq f4 [1, 4]
00000000: fd8d 063c 7188 0f3a 3af8 0d3b 1227 c50f
0.008212564 0.00054753484 0.0021662847 1.9440749e-29
